(body2d): Sequential(
  (0): BNSNConv2dDBlock(
    (block): Sequential(
      (0): Conv2d(1, 4, kernel_size=(3, 3), stride=(2, 1), padding=(1, 2), dilation=(1, 2))
      (1): BatchNorm2d(4, eps=1e-05, momentum=0.1, affine=True, track_running_stats=True)
      (2): LeakyReLU(negative_slope=0.01)
    )
  )
  (1): BNSNConv2dDBlock(
    (block): Sequential(
      (0): Conv2d(4, 16, kernel_size=(3, 3), stride=(2, 1), padding=(1, 4), dilation=(1, 4))
      (1): BatchNorm2d(16, eps=1e-05, momentum=0.1, affine=True, track_running_stats=True)
      (2): LeakyReLU(negative_slope=0.01)
    )
  )
  (2): BNSNConv2dDBlock(
    (block): Sequential(
      (0): Conv2d(16, 64, kernel_size=(3, 3), stride=(2, 1), padding=(1, 8), dilation=(1, 8))
      (1): BatchNorm2d(64, eps=1e-05, momentum=0.1, affine=True, track_running_stats=True)
      (2): LeakyReLU(negative_slope=0.01)
    )
  )
)
(body1d): Sequential(
  (0): BNSNConv1dDBlock(
    (block): Sequential(
      (0): Conv1d(640, 512, kernel_size=(3,), stride=(1,), padding=(1,))
      (1): BatchNorm1d(512, eps=1e-05, momentum=0.1, affine=True, track_running_stats=True)
      (2): LeakyReLU(negative_slope=0.01)
    )
  )
  (1): BNSNConv1dDBlock(
    (block): Sequential(
      (0): Conv1d(512, 512, kernel_size=(3,), stride=(1,), padding=(16,), dilation=(16,))
      (1): BatchNorm1d(512, eps=1e-05, momentum=0.1, affine=True, track_running_stats=True)
      (2): LeakyReLU(negative_slope=0.01)
    )
  )
  (2): BNSNConv1dDBlock(
    (block): Sequential(
      (0): Conv1d(512, 512, kernel_size=(3,), stride=(1,), padding=(32,), dilation=(32,))
      (1): BatchNorm1d(512, eps=1e-05, momentum=0.1, affine=True, track_running_stats=True)
      (2): LeakyReLU(negative_slope=0.01)
    )
  )
  (3): BNSNConv1dDBlock(
    (block): Sequential(
      (0): Conv1d(512, 512, kernel_size=(3,), stride=(1,), padding=(64,), dilation=(64,))
      (1): BatchNorm1d(512, eps=1e-05, momentum=0.1, affine=True, track_running_stats=True)
      (2): LeakyReLU(negative_slope=0.01)
    )
  )
  (4): BNSNConv1dDBlock(
    (block): Sequential(
      (0): Conv1d(512, 512, kernel_size=(3,), stride=(1,), padding=(128,), dilation=(128,))
      (1): BatchNorm1d(512, eps=1e-05, momentum=0.1, affine=True, track_running_stats=True)
      (2): LeakyReLU(negative_slope=0.01)
    )
  )
)
(head): Conv1d(512, 80, kernel_size=(3,), stride=(1,), padding=(1,))
